saved_models/discriminator_cgan.pth (torch, 411445 bytes, 22 tensors)

label_emb.weight f4 [6, 20]
000000 ed ca aa 3e 9c 4e c1 bf 1d c9 9c 3f c7 f8 79 3e
       0.33357945 -1.5102115 1.2248875 0.24411307
000010 3f 72 11 40 96 bd a6 3f 4a 4a b6 bf 38 a0 27 be
       2.272598 1.3026607 -1.4241421 -0.16369712
000020 d6 08 73 3f f9 fb ae bf f3 dc ee 3f ce cc 21 c0
       0.9493536 -1.3670646 1.8661178 -2.5281253
000030 0b 72 ac bf 0f 13 b6 be b2 f3 aa 3f 0d 12 f3 bb
       -1.3472303 -0.35561416 1.335562 -0.0074179233
000040 b7 72 a1 3f 5a c2 9b 3f c7 85 68 3f 6a 75 8e bf
       1.2613133 1.2168686 0.9082913 -1.1129582
000050 7d fc 9b 3f 38 99 80 bf 96 9c c4 3e c0 02 44 be
       1.2186428 -1.0046759 0.38400716 -0.19141674
000060 70 30 c0 3f 0d 7f 12 bf 97 79 5e be a7 4f 04 40
       1.5014782 -0.57225114 -0.2172607 2.0673616
000070 33 95 47 3f 26 85 ac 3e 3a 4b 38 3f 6f d3 99 be
       0.77962035 0.33695334 0.71989787 -0.30044124
000080 bc 86 3c 3f 9a 44 8f 3f 7e b8 c7 3e a3 f8 b3 bf
       0.7364309 1.119281 0.39007944 -1.4060253
000090 d0 d2 f7 3e 9e 33 ca 3f 03 29 99 3f 23 db c7 3f
       0.48403025 1.5797002 1.1965641 1.561375
0000a0 97 cf d0 bf e9 9c 90 bf 25 be f7 3e fe 38 86 bf
       -1.6313351 -1.1297885 0.48387256 -1.0486143
0000b0 9c b3 19 bf 7c fb 89 be 93 97 38 be 80 50 b7 3e
       -0.6003969 -0.2694968 -0.18026571 0.35803604
0000c0 32 9e 73 3e 83 10 b2 3f d2 05 ab 3e ef 68 4e 3f
       0.23790815 1.3911289 0.33402878 0.80628866
0000d0 ae 34 85 3f f4 30 15 3c f3 a8 37 bf 2b cc 41 3f
       1.0406702 0.00910591 -0.7174217 0.7570216
0000e0 37 eb 2b bf be bc de bf 8a ce d6 bd 18 9b 21 bf
       -0.67155784 -1.740135 -0.10488613 -0.6312728
0000f0 24 c7 e6 bc 8a 45 83 3f 87 ce da 3f c1 ae c6 bf
       -0.02817113 1.0255597 1.7094277 -1.5522081
000100 e9 48 13 c0 76 30 a1 3f 38 42 bc bd 11 aa 7d be
       -2.301325 1.2592914 -0.09192318 -0.24771906
000110 82 f6 1c bf 2c 57 2d 3e ec fb 1a 40 2c 4b 33 3e
       -0.6131364 0.16927785 2.421626 0.17509145
000120 c5 a4 0a c0 92 de 36 3f e2 1e 2e bc 23 7e 88 bf
       -2.1663067 0.71433365 -0.01062748 -1.0663494
000130 31 5a b3 bf de 00 16 bf 7b 1a 47 3f d7 76 57 3f
       -1.4011899 -0.58595073 0.7777478 0.8416571
000140 31 22 e8 be b1 76 7c 3f 33 75 82 3f 95 9c ad 3d
       -0.45338586 0.9861861 1.0192016 0.08477131
000150 ba cd df bf 54 65 0f c0 e1 d6 97 3f e1 83 19 bf
       -1.7484658 -2.2405596 1.1862451 -0.59966856
000160 c9 da d2 3e 49 23 d9 3f 99 5a b9 bf fb 45 f5 bd
       0.41182545 1.6963893 -1.4480773 -0.11976238
000170 c3 a7 02 bf bf 70 c6 3f 81 7a 80 3f 2f bb 6f be
       -0.51037234 1.5503157 1.0037385 -0.23411249
000180 be 64 60 bf 52 84 c7 bf 43 1b b7 3e 23 fd 00 bf
       -0.8765372 -1.5587256 0.35762987 -0.50386256
000190 93 1b 4d bf ad dd 5a 3e 9b 04 bf 3f c3 95 a2 bb
       -0.801202 0.21373625 1.492328 -0.0049617006
0001a0 d3 9f f0 be b9 e7 68 3f dc bb 19 bf ea d3 db 3d
       -0.46996936 0.9097858 -0.60052276 0.10733779
0001b0 9c 40 cc bf 2f 07 e1 3f 01 c0 ed bf f6 a7 7f 3f
       -1.5957217 1.7580317 -1.857422 0.99865663
0001c0 38 60 80 3f f8 3c 86 bf 1a 2b e9 3c e5 63 c1 3f
       1.0029364 -1.0487356 0.028462935 1.510861
0001d0 c3 0f 3d bf 27 f5 20 3d 07 e9 4e bf f8 7c 6a 3f
       -0.73852175 0.039296295 -0.8082432 0.9159694

model.0.weight f4 [16, 3, 3, 3]
000000 f1 1b 0c 3e 41 2b bd bd 49 ec 29 be a1 1b 80 bd
       0.13682534 -0.09236766 -0.16594042 -0.0625527
000010 db 5b e6 bd 9b 16 3a bd 42 11 05 3e 2b f6 a7 bd
       -0.11247989 -0.045431715 0.12994865 -0.0820125
000020 92 4d 4a be e5 45 48 bc b4 b3 06 3e af 8c ca 3d
       -0.19756153 -0.012223695 0.13154489 0.098901145
000030 3a 7c 74 3c f8 33 a9 bd c5 14 a2 bc c7 5c 0f bd
       0.014922196 -0.082618654 -0.019785294 -0.03500059
000040 c3 46 eb bc bd cf d7 bc c0 46 5f 3d 0f f3 f7 3d
       -0.028720265 -0.026344175 0.05451083 0.121069066
000050 61 12 0f 3e d9 cc e6 bc f1 2a e7 bd d8 eb 87 bd
       0.13971855 -0.02817385 -0.11287487 -0.066367805
000060 ea c1 89 3d f4 05 34 3e 8d 60 67 3d 39 3f a5 3d
       0.06726439 0.17580396 0.056488562 0.080686994
000070 41 d7 66 3d c7 fb cf bd 01 51 de 3c bf a9 23 be
       0.056357626 -0.101554446 0.027138235 -0.15982722
000080 ff 79 5c be ea 70 38 be f9 ee 67 3d ca c6 ff bc
       -0.21530913 -0.18011823 0.056624386 -0.03122272
000090 f0 c5 1f 3e d6 17 a0 3d 89 57 07 3d 45 c0 7c bd
       0.15602851 0.07817046 0.033042464 -0.0617068
0000a0 0b f1 ac 3b de 00 59 bc 7c cb ff bc 95 a1 de bd
       0.005277758 -0.013244836 -0.031224959 -0.10870663
0000b0 f3 48 ac bd 6c 0f 3b bd e7 07 9e 3b b2 20 31 bd
       -0.084123515 -0.045669004 0.0048227194 -0.04324407
0000c0 79 6d 23 3c ac 4a 90 3d 6b 0c 3d 3d ed a1 e6 3d
       0.009974831 0.070454925 0.04615442 0.11261354
0000d0 33 0a 3f 3e 45 d7 15 3e 33 f5 1e bd 58 08 13 bc
       0.18656234 0.146329 -0.03880806 -0.008974157
0000e0 79 cd ad bd f1 d9 0c ba 1e 03 a0 3d 97 c0 9b 3b
       -0.084864564 -0.0005373052 0.078130946 0.004753183
0000f0 8f 75 1b be ee 51 61 be 14 51 f9 3c f6 a3 8d 3d
       -0.15181564 -0.2200391 0.030434169 0.06916039
000100 62 d8 2b 3d c9 b5 5e bd ac 3c 53 bc 54 3f 38 be
       0.041954406 -0.054372583 -0.012892883 -0.17992908
000110 0a 9d 04 bc e2 6a b3 3d cc de ef 3d 59 5c f5 bd
       -0.008094082 0.08760621 0.11712417 -0.119805045
000120 3d a4 68 bd 32 d9 a1 3d b6 de 89 bd a8 05 e4 3d
       -0.056797255 0.07902755 -0.06731932 0.11133891
000130 9c 14 63 3d 28 11 9e 3d 1c d6 07 bb 8f a2 54 3d
       0.055439577 0.07718116 -0.0020726984 0.05191284
000140 5a 46 0a 3e c9 46 4d 3e 61 0d 9c bd 49 a9 21 bc
       0.135034 0.20046534 -0.07619739 -0.009867021
000150 d5 e5 04 3e dc 8f d1 3d 62 f6 8c 3c 82 c2 66 bc
       0.12978299 0.10232517 0.017207328 -0.01408446
000160 fc 87 47 3e cd 48 dc 3d a3 46 53 3d ce ff f7 bd
       0.19485468 0.10756073 0.051581036 -0.12109338
000170 d0 fa 9b 3c 86 e4 cc 3d 41 e3 8f bd 16 4e d2 3d
       0.019040495 0.10004525 -0.07025767 0.102688
000180 60 70 98 bd ec 47 b7 3d 6e 2d 90 3c 4f 5c 1f be
       -0.07443309 0.08949265 0.017599788 -0.15562557
000190 f9 93 30 3e 3b fc 02 be fe f1 1b be f7 50 58 bd
       0.17243947 -0.12791531 -0.15229031 -0.05281159
0001a0 eb d5 de bd 3f 71 8f 3c be d7 bd bd a4 d8 ee 3d
       -0.10880645 0.017510055 -0.09269665 0.11662415
0001b0 70 f4 2a 3d 6c 5f 3b bd be db bd bb db 9a 52 3e
       0.04173702 -0.0457453 -0.0057940176 0.20566885
0001c0 40 05 26 be 6e 6b 11 bd dd 28 1b 3e 46 9c 4f bd
       -0.1621294 -0.035502844 0.15152307 -0.050686143
0001d0 b3 72 47 3e dc 97 e6 bd 9f 90 05 be 6e 05 a1 3d
       0.19477348 -0.112594336 -0.1304345 0.07862364
0001e0 ae df 0b 3e ec 53 c2 3d da 6a 8f bd 44 47 f2 bb
       0.13659546 0.09488663 -0.07002802 -0.0073937494
0001f0 1c 74 01 3e b3 5e 81 3d 74 a4 b0 bb 6d 9d 2b 3e
       0.12641948 0.063168906 -0.005390698 0.16759272
000200 f1 57 a1 bd b5 dc eb bd 17 26 9f 3c c8 33 3c bd
       -0.078781016 -0.11516706 0.019427342 -0.04594782
000210 fe 83 0b 3e e4 de ec 3c 8e 42 17 3e 36 31 12 bd
       0.1362457 0.028914876 0.14771482 -0.035691462
000220 1d 14 78 3d 70 a5 c8 bd d5 ad 53 3e 74 44 9d bd
       0.060566057 -0.0979718 0.2067178 -0.07679072
000230 52 36 06 be d1 43 21 bd 81 32 46 3e 5f e8 6f 3d
       -0.13106659 -0.039371315 0.19355203 0.058571216
000240 4f 0e cb bd e9 18 32 bd c9 79 ac bd 53 f9 b8 bc
       -0.099148385 -0.043480787 -0.08421666 -0.022579825
000250 86 f8 b0 3d 51 a0 9d 3d 65 b1 3f 3e a4 48 e6 bc
       0.08641152 0.076965936 0.18720014 -0.02811081
000260 77 6d 73 bd 9d 54 45 be 14 47 89 3c 6e e9 59 bc
       -0.059430566 -0.19270559 0.016757526 -0.013300283
000270 3a 88 f8 bd 23 57 7e bc 14 e0 8d 3d be 6e 8a bd
       -0.12135358 -0.015523705 0.06927505 -0.06759404
000280 13 a8 13 be 5a 85 21 bd b0 f0 97 3c e7 f9 a3 bc
       -0.14419584 -0.039433815 0.018547386 -0.020016624
000290 5f 46 31 bd bf ef 78 3d 68 31 35 be 9e 2e 5c bc
       -0.04328 0.060775515 -0.17694628 -0.013438849
0002a0 b5 bf 1e be 51 74 51 bc 9c eb 4c be 17 d1 03 be
       -0.15502818 -0.01278408 -0.20011753 -0.1287273
0002b0 7e 61 01 3e 72 54 cd 3c 38 f4 98 bd ee bf b4 bd
       0.12634847 0.02506468 -0.07468456 -0.0882567
0002c0 a8 24 19 3d 94 8b bf bd 90 c7 2a 3e c9 7e b3 ba
       0.037388474 -0.09352794 0.1667769 -0.0013694401
0002d0 c9 82 49 bd c3 ab 6c bd c5 06 98 bc f2 1f 1a bd
       -0.049196992 -0.057780992 -0.018557915 -0.03762812
0002e0 af 4b 08 be f2 81 44 3e 7f 6c 67 3e e3 d7 30 3e
       -0.13310121 0.19190195 0.22599982 0.17269854
0002f0 1b 4c 61 3e af 18 df 3d 20 da ff bd 82 0b 23 be
       0.22001688 0.1089338 -0.12492776 -0.15922359
000300 f7 e1 5e bc 3e 87 a4 3b 1c 18 0f 3e f1 ae 85 bd
       -0.013603679 0.005021005 0.13974041 -0.06527508
000310 87 14 24 3d 10 86 22 bd 23 aa 4f 3d 3c a9 14 be
       0.04005864 -0.039678633 0.050699364 -0.14517683
000320 e7 b4 03 3e 3f 41 82 bd ca 91 0a 3d 95 68 03 3e
       0.12861978 -0.06360101 0.03383044 0.12832864
000330 49 30 20 3e cc 46 85 bc 75 71 b2 3d 00 56 c9 3d
       0.1564342 -0.01626911 0.087130465 0.09830856
000340 d3 f1 f0 bd 43 db 0a 3d 62 50 33 be fd a3 80 bd
       -0.11764874 0.03390051 -0.17511132 -0.06281278
000350 44 f8 2a be b8 0c a2 3d ec a7 00 be bf ff e2 bd
       -0.16696268 0.07912582 -0.12564057 -0.11083936
000360 cd d4 83 bd 15 76 eb bb e8 79 ac bd a8 25 b0 3d
       -0.06437073 -0.0071857073 -0.08421689 0.08600932
000370 27 ec c6 3d 62 20 e2 3d 3a 3a 51 3e 76 c5 0a 3e
       0.09713011 0.11041333 0.20432368 0.13551888
000380 2b e4 2d 3e a3 85 05 be 84 74 1e 3e 7f e1 53 3d
       0.1698157 -0.1303926 0.15474135 0.05172872
000390 ba ec e4 3d 83 0d 4c bc 05 83 61 3d 92 6e 35 be
       0.111779645 -0.012454393 0.05505659 -0.1771796
0003a0 0f 50 97 bd b2 09 42 bd e9 0e df 3d c3 b7 9d 3d
       -0.07388317 -0.047372527 0.10891516 0.077010654
0003b0 46 d6 38 be b9 e4 f5 bd 3c e6 9e 3d 7b ac 51 be
       -0.18050489 -0.12006516 0.077587575 -0.20475952
0003c0 48 9b 6b be 55 49 19 3d 01 d7 da ba 2b 1f 4f be
       -0.23008454 0.03742345 -0.0016696156 -0.20226733
0003d0 91 4a 4c be 61 9f 04 be 0b 50 b4 3d 00 36 fc bd
       -0.1995032 -0.12951423 0.088043295 -0.12314987
0003e0 22 94 51 bc cd e1 07 3e c0 2b 97 3d f0 49 4a bd
       -0.012791665 0.1326973 0.073813915 -0.04938692
0003f0 63 26 1f bd 29 96 ce 3d 82 f6 02 3e b4 65 69 3d
       -0.038854968 0.100872345 0.12789348 0.056981757

model.0.bias f4 [16]
000000 45 ac db 3d 3a ac dd 3d 71 ce ca 3d d8 9d 63 bd
       0.10726217 0.10823865 0.09902657 -0.055570453
000010 3d 52 c9 3d 2b be 17 be 71 f7 eb 3d 8e 65 e8 bd
       0.09830139 -0.14818637 0.11521805 -0.11347495
000020 2f 28 88 3c b1 c8 b8 bc b9 94 54 be ab ea 43 3d
       0.016620724 -0.022556635 -0.20759858 0.04783122
000030 51 7e 6f be 2b e7 dc bd d6 b4 03 bd 8c 1a 05 3d
       -0.2338803 -0.10786279 -0.03215488 0.03249602

model.3.weight f4 [32, 16, 3, 3]
000000 a7 be db bc 13 23 91 3d 6b a3 0f 3d 10 92 90 3d
       -0.026824309 0.07086768 0.035067957 0.07059109
000010 d4 1b e4 3c c4 9a 89 3d 8a 4d 69 bc d9 42 23 3d
       0.0278453 0.06718972 -0.014239678 0.039858673
000020 19 7f 82 3d ac 71 02 3d 41 50 69 3c f2 b1 61 bd
       0.06371898 0.031846687 0.014240325 -0.055101342
000030 6e e0 49 3d c5 e5 87 3c 9b 39 99 3b 5f da 65 3c
       0.0492863 0.016589055 0.0046760566 0.0140291145
000040 d0 01 69 3d 2d f3 59 bd af 4c c9 3c 28 b2 57 bd
       0.056886494 -0.053210426 0.024572698 -0.052660137
000050 78 09 d6 bc ab 63 76 bb d7 1d a6 3c 22 29 c9 bc
       -0.026127562 -0.0037596028 0.0202779 -0.024555746
000060 2b 0a 0f 3d 96 89 2f bc 5e 17 d9 bb fa 02 a3 3d
       0.034921806 -0.010713955 -0.0066251 0.07959552
000070 ae fb e5 3c 0a d1 a4 3d 21 0a fc 3c a3 84 1d bd
       0.028074112 0.080476835 0.030766549 -0.03845657
000080 71 61 49 bd 87 21 0c 3c 44 42 72 bc 65 9f 41 bd
       -0.049165193 0.008552915 -0.014786307 -0.04727115
000090 55 ba 5e bc 0f 4f 7b bd 81 f9 2f bd 3a 1d ae bd
       -0.01359423 -0.061354693 -0.042962555 -0.08501668
0000a0 51 47 2b bc ac a4 b7 bd 69 20 aa bd c3 1b 1a bd
       -0.010454015 -0.089669555 -0.08306963 -0.037624132
0000b0 07 89 95 bd 7f 4c 2a 3d 8b 07 92 ba be bf 68 3d
       -0.073015265 0.04157686 -0.0011141164 0.056823485
0000c0 a9 33 82 bd 0e bc 8f bc c6 06 b4 39 32 ca 89 3d
       -0.0635751 -0.017545726 0.00034337322 0.06728019
0000d0 6b c1 48 bc 6e dd 5d 3c 31 cf 9a 3c e8 94 29 3d
       -0.012253146 0.0135415625 0.018897625 0.041401774
0000e0 ac ce 21 3d 6e 05 87 3a d6 c1 7e 3b 05 19 50 bd
       0.03950374 0.0010301301 0.003887286 -0.05080511
0000f0 ac ed 63 3d fb d7 b7 bb b0 50 c4 bb 25 1d f9 bc
       0.055646583 -0.0056104637 -0.005991064 -0.030409405
000100 24 11 7c bc 16 6e 8f bc 4f c7 43 3c 05 f9 dc 3d
       -0.015384946 -0.017508548 0.011949374 0.10789684
000110 cc 6e 95 bc d7 f9 bb bc 8c c5 b7 3d 2d 2f 36 bd
       -0.018241309 -0.022946281 0.08973226 -0.044478584
000120 aa 86 42 bc ac 12 49 3d 08 47 25 bd 3f 76 18 bd
       -0.011872927 0.049090073 -0.040350944 -0.037222143
000130 d1 06 3e bc da 06 0f 3d db be 97 3d 18 ac cf 3d
       -0.011598305 0.034918644 0.0740945 0.10140246
000140 df 15 b7 3d 30 cf 50 bd 52 fb 91 bd 64 fe 23 3c
       0.089397185 -0.05097884 -0.07128014 0.010009382
000150 3e 74 4b 3d a7 cf 7c 3d 82 87 ae bc 14 ee bb 3d
       0.049671404 0.06172147 -0.02130485 0.09176269
000160 6f e2 4e 3c ec 5e 9e 3d 2b fe bd bc c4 7e e4 3a
       0.012627228 0.07732949 -0.023192486 0.0017432799
000170 f3 95 49 3d 4b b3 56 3b 14 cb 62 3d d0 b0 a4 bc
       0.04921527 0.0032760676 0.05536945 -0.020103842
000180 b2 f2 85 3c 24 c7 c1 bc ee eb 8f 3d 01 1b 60 bd
       0.016351078 -0.023654528 0.07027422 -0.054713253
000190 82 c6 65 3d 24 97 87 3d 97 76 76 3d 0c 5f 76 3d
       0.056097515 0.06620625 0.06017169 0.060149238
0001a0 44 6d 92 bd 8e ce 1c 3c 2f 38 21 bd 7a 6c 80 3d
       -0.07149747 0.009570731 -0.03936022 0.0627069
0001b0 4d 0d 23 bc 06 b5 d8 3c f1 ab 5a 3d 6a 9e c2 3d
       -0.009951902 0.026453506 0.053386632 0.09502871
0001c0 42 45 ae 3d a4 41 63 3d 49 a5 5a bd 28 20 5e bd
       0.08509304 0.05548252 -0.053380284 -0.054229885
0001d0 b8 b1 b0 3d 50 5b 02 bd 1d 6f d6 bc 08 11 7f 3d
       0.08627647 -0.031825364 -0.02617603 0.0622721
0001e0 ac b4 9e 3d 14 44 81 3d 0f 4a 67 bc e8 7d 3e 3d
       0.07749304 0.06311813 -0.014116778 0.046506792
0001f0 f0 69 84 3d dc 12 31 bd 59 36 a0 bc 34 7e 88 bd
       0.064655185 -0.043230876 -0.019557165 -0.06664696
000200 20 f4 b2 3c 8b 09 dd bc cb fd 64 bd 21 75 62 bd
       0.021844923 -0.02698209 -0.0559061 -0.055287484
000210 44 29 c9 3c 45 8a 0d 3d e6 81 c8 bd df bc 1a bc
       0.02455581 0.034555692 -0.09790401 -0.009444444
000220 c1 29 1b 3d 0d 89 a1 3d 95 fe 42 3d 62 ca 9e 3d
       0.037881617 0.078874685 0.04760607 0.07753445
000230 2f 58 97 3d 26 2d 39 bd cf 17 0b bd ea 55 ae 3d
       0.073898666 -0.045209073 -0.033958253 0.085124806
000240 7e 62 7e 3b 3d dd 28 b9 45 76 cb bb 83 8f 82 bd
       0.003881603 -0.00016104146 -0.006209167 -0.06375029
000250 af dc df 3c 61 a9 a5 bc 90 76 2a 3d d9 87 f0 3c
       0.02732691 -0.020222368 0.041616976 0.029361652
000260 3d 36 12 bc 69 5b 17 3c 7a b9 ab 3d d8 3a f3 39
       -0.008924064 0.0092381025 0.08384986 0.00046392414
000270 6e e7 8b bd 4f e8 15 bd a0 d6 16 3d 04 81 ac bb
       -0.06831251 -0.0365985 0.036825776 -0.0052644033
000280 c1 5e 24 bd a2 d6 40 bd e1 0d 1d bd 6d c6 49 3d
       -0.040129427 -0.04707969 -0.038343314 0.0492615
000290 a5 af 7b bd e3 95 1d 3d 90 3f 9a bc cb cd 23 bd
       -0.061446805 0.03847302 -0.018829137 -0.03999118
0002a0 01 41 71 bd a0 69 73 3d db e4 b7 bc f6 c9 0f 3d
       -0.058899883 0.059426904 -0.022447994 0.035104714
0002b0 03 60 29 bd 61 43 26 3d 3e 1f ec bc 54 9e 7a bd
       -0.04135133 0.0405916 -0.028823491 -0.06118615
0002c0 c6 65 9c 3c e1 f3 86 bd 58 68 c8 bc 30 e5 42 bd
       0.019091498 -0.06589485 -0.024463817 -0.04758185
0002d0 cb 89 7a 3d 20 59 aa bc 81 ce 82 3d b8 c0 69 3d
       0.061166566 -0.020794451 0.06387044 0.057068557
0002e0 5e b8 4c 3d 2b dc a1 bd d6 f6 b8 bd 6e e2 8f bd
       0.049980514 -0.07903322 -0.09031455 -0.0702561
0002f0 c7 29 a8 3c 03 e6 b0 bd cc f9 12 3d 2a 0a ad 3c
       0.020527733 -0.08637621 0.035882756 0.02112301
000300 4d 13 e0 bd 42 f4 4a bd 53 68 1a 3b 50 c2 48 bd
       -0.10941181 -0.04954935 0.0023560717 -0.049013436
000310 a7 fd 59 bd d4 b5 13 3d 50 18 7e bc dc 12 41 bd
       -0.053220417 0.036062077 -0.015508726 -0.047137126
000320 d2 7b dd 3c 31 0e d9 bd a2 33 35 bd ad de bc bc
       0.027036581 -0.1059841 -0.044238694 -0.023055399
000330 c8 34 58 3d 3a 55 de 3c 0c 53 65 3d c0 d0 88 bd
       0.05278471 0.027140249 0.055987403 -0.06680441
000340 0b 06 b0 bc 98 a4 8b bd b8 da 8e bd 0a 57 9c 3d
       -0.021487257 -0.06818503 -0.06975311 0.07633789
000350 d6 db 66 bc ba 0a 7e 3d 93 ce 5a 3d aa 4b 4e bb
       -0.014090499 0.06202195 0.05341966 -0.0031478205
000360 59 9f 52 bd 2c 23 86 bd 51 aa 85 3c 5c 2d 9b bc
       -0.051421497 -0.06549677 0.016316565 -0.018942527
000370 22 7b d8 3c 76 f4 43 bd ae 1c 38 bd ee a6 30 bd
       0.026425902 -0.047840558 -0.044949226 -0.043127947
000380 d9 96 2d bd cb e3 17 bc 0c 53 54 3c 4c 22 9e bd
       -0.042380188 -0.009270619 0.012959253 -0.07721385
000390 9d f7 2c bd 6c 35 a1 3d c1 ef 93 ba ef 66 f3 3c
       -0.04222833 0.078715175 -0.0011286662 0.029712168
0003a0 88 7e d9 bc 03 7f 45 bc 3c 3f 1b 3c 48 3f 6d bd
       -0.026549593 -0.012054208 0.0094755255 -0.057921678
0003b0 70 3b 67 bd 15 73 73 bd ac 4c 1b bd 71 18 8d bc
       -0.05645317 -0.059435923 -0.037914917 -0.017223569
0003c0 32 51 06 bd a2 99 d9 3c 3e 8e a9 3c 79 36 44 3d
       -0.032792278 0.026562516 0.02069771 0.04790351
0003d0 6e 2a 61 bd 3c d7 1d bc 9a fa a1 bc f7 2f 18 bd
       -0.054972105 -0.009633835 -0.019772816 -0.037155118
0003e0 b3 f6 57 bd 5e 85 a0 3d 45 13 8c bd 18 8f 05 3d
       -0.052725505 0.07837938 -0.06839613 0.032607168
0003f0 80 31 bd bd f2 98 3f bd a8 17 a2 bd a3 d5 b2 3c
       -0.09237957 -0.04677672 -0.07914668 0.021830386

model.3.bias f4 [32]
000000 13 14 25 bc dd 78 81 3d 0c 80 86 bd 3a 01 9e 3d
       -0.010075587 0.06321881 -0.06567392 0.07715078
000010 fb 83 a9 3d 88 35 77 bd 7c d2 1b 3c e2 cd a3 3c
       0.082771264 -0.060353786 0.009510633 0.019995634
000020 d1 23 d9 3c fb 97 07 bd 7e 98 09 bd 95 56 24 3d
       0.026506336 -0.033103924 -0.033592694 0.040121634
000030 77 1d 09 bc 58 7f a8 3c 7b 07 1b bd 08 04 11 3d
       -0.008368841 0.020568535 -0.03784893 0.035404235
000040 40 2d 7a bd 0c c4 0f 3d 2f 67 68 bd 48 33 84 bc
       -0.06107831 0.035099074 -0.05673903 -0.016137734
000050 8e 6e 81 3d 72 a0 9c 3c 29 98 94 bd 30 41 01 bd
       0.06319915 0.019119475 -0.07255585 -0.03155631
000060 ef dc 1d bd ef fa 1a 3d 43 24 b2 bb ea 21 af bc
       -0.038540777 0.037836965 -0.0054364516 -0.021378476
000070 5a 9f 6c bc 5b 06 b7 bc f1 9a d3 bc 44 92 2f 3d
       -0.014442289 -0.022341898 -0.025830718 0.0428641

model.4.weight f4 [32]
000000 7d e5 7c 3f c6 97 7e 3f cb 43 74 3f 32 e8 7c 3f
       0.9878767 0.9945034 0.95415944 0.987918
000010 52 26 73 3f 37 e0 7d 3f 85 97 7b 3f d9 84 7a 3f
       0.9498035 0.9917025 0.98278075 0.9785896
000020 cc 8f 7c 3f ba 7d 82 3f 34 12 7f 3f 4b 16 74 3f
       0.98656917 1.0194619 0.9963715 0.95346516
000030 eb 22 7e 3f e9 48 7a 3f 92 b3 73 3f 71 03 79 3f
       0.9927203 0.977675 0.9519588 0.97270876
000040 54 05 80 3f f1 73 81 3f 92 ed 72 3f 65 5d 76 3f
       1.0001626 1.0113508 0.94893754 0.9623626
000050 33 15 7c 3f 2b 65 7c 3f 3e d1 75 3f 8d 54 7a 3f
       0.9846985 0.9859187 0.96022403 0.97785264
000060 a0 76 7c 3f f2 a8 7c 3f 38 fe 7c 3f 02 95 79 3f
       0.9861851 0.9869529 0.9882541 0.9749299
000070 3b 05 79 3f 98 50 7a 3f 72 d4 76 3f 87 5b 79 3f
       0.97273606 0.97779226 0.96417916 0.97405285

model.4.bias f4 [32]
000000 a3 c4 57 bd 68 8b 05 bd 9d 59 c2 bd b6 ab 24 bd
       -0.05267776 -0.03260365 -0.094897486 -0.04020282
000010 77 fe 76 bd 7a b9 92 3d 6a 35 99 bd aa c1 67 bd
       -0.06030127 0.07164283 -0.07480891 -0.056581177
000020 37 42 c0 3d 31 1c e8 bc 17 51 0a bd e6 44 57 bd
       0.093876295 -0.028333755 -0.03376874 -0.05255594
000030 1c 1c 14 bd 7f 3d 62 bd df 9f 0a bd 51 dd ea bd
       -0.03615962 -0.05523443 -0.03384387 -0.11467994
000040 97 e0 51 bd 7d c1 3e bd 69 35 90 bd 3b 08 d0 bd
       -0.051239576 -0.046571244 -0.07041437 -0.1015782
000050 88 18 4c bd 91 db 54 bd 81 3e 5f bd c8 b6 b5 bd
       -0.049828082 -0.051967207 -0.054502968 -0.088727534
000060 eb d9 5a bd ed 4e 8c bd 5f 5d 9e bd ec 0b ae bd
       -0.05343048 -0.068509914 -0.07732653 -0.08498368
000070 84 c8 5c bd ed d8 2f bd 87 4c ce bd d8 83 d3 3d
       -0.053902164 -0.042931486 -0.1007319 0.103278816

model.4.running_mean f4 [32]
000000 32 6d 36 3e 2e 9d 99 bd 42 b0 b3 be 58 48 a5 3e
       0.17815092 -0.07500683 -0.35095412 0.32281756
000010 38 7f c7 3c e3 12 e7 3c 29 b7 f3 bd b3 84 9d be
       0.024352655 0.028207248 -0.119001694 -0.30765304
000020 a9 c7 45 3e 9a a4 b8 bd 2a cf 16 3e 39 b1 3b be
       0.19314446 -0.0901577 0.14727464 -0.18329324
000030 89 16 ea 3d 13 45 52 be f5 bc 2d bd ff e9 6a be
       0.114300795 -0.20534162 -0.04241653 -0.22940825
000040 19 29 41 3e c3 49 94 bc 24 a8 a7 be c4 3d 8a be
       0.18863334 -0.018101579 -0.3274547 -0.27000248
000050 41 40 36 be 10 1a e2 3c 13 48 b4 be ae eb ce be
       -0.17797948 0.027600318 -0.35211238 -0.40414184
000060 4c cf 6e bc 56 6c c2 be ac 24 e5 bd 1b da bc be
       -0.014575791 -0.3797328 -0.11188635 -0.3688515
000070 e8 a0 54 3b 48 99 3d be 2a b5 a5 be a1 0e 28 3e
       0.003244454 -0.18515503 -0.3236478 0.1641183

model.4.running_var f4 [32]
000000 a9 72 26 3d da 85 8e 3c 69 18 83 3d f0 f3 6b 3d
       0.040636692 0.01739781 0.0640114 0.057605684
000010 32 9d a2 3c dd 92 e3 3d 21 3c 93 3c 86 6d 0c 3e
       0.019850347 0.11111996 0.017973008 0.13713655
000020 e1 02 28 3e 38 ee 94 3c 6d ab 00 3d 37 10 a6 3c
       0.16407348 0.018179998 0.031413484 0.020271404
000030 b4 98 88 3d 8e d1 08 3e b2 8d 57 3d 41 db 07 3d
       0.06669751 0.13361189 0.052625366 0.03316808
000040 2a af c3 3c 22 1d 4e 3c 6c 3a ed 3d 36 c9 1c 3d
       0.023887236 0.012580188 0.11583409 0.038277827
000050 73 1d b7 3c ef dc 02 3d f3 d1 35 3e 4f b6 af 3d
       0.02235291 0.03194898 0.1775587 0.085796945
000060 3c b8 24 3d 80 6f 31 3e 95 bb b6 3c db b7 29 3e
       0.040214762 0.1732769 0.022306243 0.16574042
000070 51 fe 01 3c 2c 8b 76 3c c1 04 86 3d 46 51 5e 3e
       0.007934169 0.01504783 0.065438755 0.21710691

model.7.weight f4 [64, 32, 3, 3]
000000 92 c9 1a bb b0 8e f2 bc ce 87 1b bd d8 60 34 3d
       -0.002361868 -0.029609054 -0.03797131 0.04403767
000010 d4 3a 71 bd 77 48 03 3c 8f 6d 73 bc 2a 09 58 bc
       -0.058893993 0.008012882 -0.014857664 -0.013185779
000020 a5 89 39 bc 15 c1 56 3d 34 ae fd bb 05 c5 78 bc
       -0.011324321 0.05243023 -0.007741714 -0.015183692
000030 28 0a a7 bc f8 b8 01 3d 31 61 21 3d f0 5b 52 bd
       -0.020390585 0.03167054 0.03939933 -0.05135721
000040 b1 e7 97 bd 3e 5e 44 bd a8 c5 aa ba 3b f6 a8 bc
       -0.074172385 -0.04794144 -0.0013028877 -0.020625224
000050 d2 28 80 bc b6 47 de bc 1e 61 62 bd 8e e4 88 bb
       -0.015644465 -0.027133804 -0.0552684 -0.0041776365
000060 7f ee 1e 3d 9e d9 47 3c a1 36 22 bd 68 ec 11 bd
       0.038801666 0.01219788 -0.03960288 -0.035625845
000070 f2 fb 58 3d 08 5f 3e bd 6e 35 80 bc e9 36 19 ba
       0.05297465 -0.046477348 -0.015650477 -0.0005844669
000080 15 76 1e 3c cb 85 64 3d b4 39 8b 3a 17 97 d9 3c
       0.009671708 0.055791657 0.0010622055 0.026561303
000090 ca ee 4d bd 43 a3 88 bc b8 bc 63 3c ea 3f 05 bc
       -0.050276555 -0.016679412 0.0138999745 -0.008132914
0000a0 9f 2b 75 3b dc d5 9e bd 06 1a 01 3d 19 26 0e bd
       0.0037410033 -0.07755634 0.03151896 -0.0347043
0000b0 0d 0f 95 bc 80 a5 d7 bc 08 c4 c0 bc 70 d0 db bc
       -0.018195653 -0.026324034 -0.023530975 -0.02683279
0000c0 77 97 ac bb 69 4a 50 bd 14 82 ac 3b 2e e7 a7 3c
       -0.0052670795 -0.050852213 0.00526453 0.020495977
0000d0 c8 65 64 bd 11 4c 90 bb 56 e6 1f bc d8 d2 68 bc
       -0.05576113 -0.004403599 -0.009759506 -0.014210425
0000e0 a0 a8 43 3d c0 0d 91 bd 0e 51 79 bd 30 4d bd bc
       0.047768235 -0.07082701 -0.060868315 -0.023108095
0000f0 01 d8 9a 3c 74 27 6c 3a 79 e9 f2 3a 2a ff 36 bc
       0.018901827 0.00090085645 0.0018532715 -0.011169234
000100 cb 91 78 bd 10 df 87 bd b1 ed 08 3d 65 5f b3 3b
       -0.060685914 -0.06634343 0.033429805 0.0054740184
000110 7d 42 25 3d 52 3e 1d 3c 07 91 0b 3d 87 bd 08 3d
       0.04034661 0.009597378 0.034073856 0.033383872
000120 21 8f db 3c 76 08 90 bb a3 48 eb 3c 50 0e 34 3d
       0.026801648 -0.00439554 0.02872116 0.043958962
000130 1a 5a 85 bd 76 a1 56 bd 38 e1 22 3d 23 5c 55 3c
       -0.06511326 -0.052400075 0.039765567 0.013022455
000140 f8 48 d1 3b 59 59 9a 3d f4 71 bc bc 11 2e 75 3c
       0.0063868724 0.07536573 -0.023003556 0.014964596
000150 06 12 97 bc c4 cd 70 bd 73 08 50 bd f4 d6 55 3d
       -0.018441211 -0.058789983 -0.050789308 0.05220695
000160 10 71 df 3c 68 39 f6 3c 93 26 e2 bc 4e e5 3b bd
       0.027275592 0.03005667 -0.027606284 -0.04587298
000170 62 b3 af bc a8 bd 8e 3d 5b 62 6e 3b 00 ec fc bc
       -0.021447841 0.06969768 0.0036374542 -0.030874252
000180 a2 99 cc 3c ad 15 88 3c a9 a8 aa 3c d1 38 69 bd
       0.024975602 0.016611898 0.020832377 -0.05693895
000190 72 e5 11 bc 47 de cb bb 91 63 8a 3c 23 64 e6 bc
       -0.008904802 -0.006221566 0.01689318 -0.02812392
0001a0 7b 36 c6 bc aa dd 38 bd cd 8c ef bc 78 e7 ed bb
       -0.0241959 -0.04513327 -0.029241944 -0.0072602592
0001b0 7c 30 81 3d 90 d2 a5 bc bf dc 8c 3c e0 72 16 bb
       0.06308076 -0.020242006 0.017195104 -0.0022956654
0001c0 5c ca 19 3d ff 4e a3 bc 0b a4 79 3c 65 5d 89 bb
       0.0375465 -0.01993513 0.015236865 -0.0041920417
0001d0 fb d3 20 bd ad 5e 15 bd c4 f8 3f bd 1c bc 74 bc
       -0.03926466 -0.036467243 -0.0468681 -0.014937427
0001e0 ae f8 70 bb 2b e6 81 3d 9c 5b 12 3d f3 89 d5 bc
       -0.0036769318 0.06342729 0.035731897 -0.026066756
0001f0 27 b8 0d bb ec f3 13 bc aa 40 af bc ee 73 23 bd
       -0.0021624656 -0.0090303235 -0.021393139 -0.03990548
000200 66 8a 4f bb 93 a9 56 3c 62 c3 9f bc 91 36 7d 3d
       -0.0031668185 0.013101953 -0.019502345 0.061819617
000210 49 60 45 3c 46 6b 22 3c 92 d4 0a bd 13 7c 7d 3d
       0.012046882 0.009913271 -0.03389413 0.061885905
000220 6d 3e 05 3d 65 d0 ea bc ed 34 3f 3d bb 7d ae 3c
       0.032530237 -0.028663823 0.046681333 0.021300187
000230 8d 15 4c bd 98 ba 20 3c d2 89 29 bd 7e c7 a6 3b
       -0.04982524 0.009810112 -0.0413912 0.0050896993
000240 ea de 95 bd a3 20 1f bd 22 6d 36 3d 65 28 29 3d
       -0.07317908 -0.038849484 0.04453767 0.04129829
000250 5b 3c 00 3d ee 36 2a 3c e0 d7 ca bc e4 d5 24 bd
       0.03130756 0.010389073 -0.02476114 -0.040243044
000260 21 fe 47 bd ba 16 92 bd 2c cc f2 3c 38 eb 51 bd
       -0.04882634 -0.07133241 0.029638372 -0.051249713
000270 a8 cb 95 bd 42 e2 1a bd 41 8f 31 bd 82 ab 35 3d
       -0.07314235 -0.037813433 -0.04334951 0.044353016
000280 bf 43 81 bd c0 ba 00 3c f1 19 34 3d 83 b4 14 bd
       -0.0631175 0.007857025 0.043970052 -0.036304962
000290 cb 11 6e bd fd 80 25 bd 40 0f 4d 3d b2 fa 1f ba
       -0.058122437 -0.040406216 0.05006337 -0.0006102725
0002a0 42 3b 71 bc 19 34 51 3b 2b 82 fb 3c 79 75 61 bd
       -0.014723601 0.0031921922 0.030701717 -0.05504367
0002b0 0b 19 1e 3c 8a f7 af bc 30 ba 19 bc 62 02 9c 3c
       0.009649525 -0.02148034 -0.009382769 0.019044105
0002c0 89 31 4e bb da 31 06 3d 69 80 7b 3c 38 39 d2 bb
       -0.003146263 0.032762386 0.01535044 -0.0064155124
0002d0 c7 5e 29 bd d4 59 1d bd 81 2d cb bc c1 42 f2 bc
       -0.041350152 -0.038415745 -0.024801971 -0.029572846
0002e0 d0 02 0f bd e5 d0 d5 3c 7f d5 42 3d f5 13 28 bd
       -0.03491479 0.026100585 0.047566887 -0.041034658
0002f0 bd e7 71 3c 98 fb 64 3b a5 d1 16 3d ef b9 ee bc
       0.014764723 0.003494 0.036821026 -0.029141394
000300 98 33 4a 3c 20 1f 1f bd 56 e9 f0 bc 89 e2 7a 3c
       0.0123414025 -0.038848042 -0.029408138 0.015312799
000310 7b f0 4f 3d e6 91 33 3d 2d 46 8d bc ac c3 8e 3c
       0.05076645 0.04384031 -0.017245376 0.017427288
000320 d7 db 05 bd 57 00 19 3d c8 44 85 3c e7 eb 07 bd
       -0.03268036 0.03735384 0.016268149 -0.03318396
000330 e7 5b 4d bd d6 67 57 bc 76 28 a8 3c d9 3e 10 3d
       -0.050136473 -0.013147315 0.020527106 0.035216186
000340 93 8a 73 bd 7a e8 6d 3c a5 6c 2f bd 80 36 03 3c
       -0.059458327 0.014520759 -0.04282822 0.008008599
000350 2c 25 b8 bc e3 9d e6 bc 1f 21 06 3d 26 71 c8 bc
       -0.022478662 -0.028151458 0.03274643 -0.024468016
000360 5a 10 83 3d 8f 91 71 3d f1 f4 61 3c 99 a7 ce 3c
       0.06399603 0.058976706 0.013791309 0.025226401
000370 4f d1 1a bd ac b7 e9 3c 57 18 70 3c 8a 8c 0b 3d
       -0.03779727 0.028529964 0.014654241 0.034069575
000380 26 c4 db 3c 1c c1 54 3c 09 99 d1 bc ac 62 2f bd
       0.02682693 0.012985494 -0.025585668 -0.04281871
000390 90 c2 54 bb 1c 3d 4a 3d ab 72 44 3d f2 c0 92 bc
       -0.00324646 0.049374685 0.04796092 -0.01791427
0003a0 d9 cd 84 3c 4b bc 4a bd b0 4d b6 3c fe 43 75 bc
       0.016211437 -0.049495976 0.022253841 -0.014969824
0003b0 92 a1 46 3d 7c 54 5e 3d c2 0a f3 bc 38 3e 03 3d
       0.04849393 0.05427979 -0.029668216 0.03204176
0003c0 c3 57 46 bc 12 96 ec bc 2d 73 8a bc 1f 3a c2 3c
       -0.012105885 -0.028880153 -0.016900623 0.023709355
0003d0 ea 60 60 bd 19 1b d2 3c 80 79 87 3b 5d 28 11 bc
       -0.054779924 0.025647687 0.004134357 -0.008859721
0003e0 a0 62 e2 bb d3 a8 cb bb 9f 91 15 bd aa 5c b2 bb
       -0.0069087297 -0.006215194 -0.03651583 -0.0054431753
0003f0 cb a8 06 bd 08 23 ad 3d d6 a3 96 3d 97 7d fe ba
       -0.032875817 0.08453947 0.07355468 -0.0019416091

model.7.bias f4 [64]
000000 2e ed bc bc a0 b6 6b 3c e1 9b 19 3d e6 de 13 bc
       -0.023062315 0.014386803 0.037502173 -0.009025311
000010 53 76 a7 bc 0c cf 73 3d c7 11 04 bc 86 3e 0b bd
       -0.020442164 0.059523627 -0.008060879 -0.033995174
000020 68 8e 08 bd a6 e9 3f 3d be ed c6 3c 74 4e fa 3c
       -0.033338934 0.046853684 0.024283286 0.030554987
000030 df 33 08 bd dd ef 14 bd ee 53 5b 3d d9 ab e6 bc
       -0.033252593 -0.036361564 0.05354684 -0.028158115
000040 8c 42 21 3d 18 14 07 3d f7 d1 30 3d f4 4d 27 bd
       0.039370105 0.032978147 0.043168988 -0.040845826
000050 fc 98 9a bc 3e 38 0e bd 31 01 18 3d e5 fc 37 bd
       -0.018871777 -0.034721605 0.03711051 -0.044918913
000060 cc 4c b3 bb 2d 1a 6f 3b 0a ba 74 bb 39 87 1a bc
       -0.0054718014 0.0036484108 -0.0037342333 -0.009431654
000070 3d 86 6a 3c 89 a9 9c bc 3e 4a c5 bb 2a 2a 51 bd
       0.014314231 -0.01912381 -0.0060208132 -0.0510656
000080 fc 8b 59 bc 1d fa 3d 3d 64 59 4d bd 3d 1d a3 3c
       -0.013278004 0.046381105 -0.050134078 0.019911403
000090 c8 d8 3a bd d9 dd 02 3d a1 fe ea bc 16 cb 46 3a
       -0.045616895 0.03194985 -0.02868587 0.0007583363
0000a0 61 5a 30 3c e7 06 bb 3c a6 d0 5c bb 43 ab 0e 3d
       0.0107637355 0.02283044 -0.00336937 0.034831297
0000b0 1c ae 31 3d 8b 18 6c 3a 3c 49 25 3d dc 09 5c bd
       0.043378934 0.0009006343 0.040353045 -0.05372034
0000c0 5b 9c 79 bb 22 94 1f 3d 68 25 21 3d 3a 90 30 3d
       -0.003808758 0.03895963 0.039342314 0.043106295
0000d0 1c 50 28 3d 16 56 4f 3d 96 58 24 3d 29 02 3d 3c
       0.041092023 0.050619207 0.040123545 0.01153616
0000e0 f3 b3 0c 3c b6 ad 96 bc b5 66 7d bc bf 31 5b bc
       0.008587825 -0.018393379 -0.015466382 -0.01337856
0000f0 10 13 1d 3d 4c b7 06 3d 1c 79 33 3d 6c 80 51 3d
       0.038348258 0.03288965 0.04381667 0.051147863

model.8.weight f4 [64]
000000 fb ac 77 3f 23 2e 82 3f 39 52 7a 3f c3 e7 7e 3f
       0.9674832 1.017033 0.9778171 0.9957239
000010 10 02 7d 3f 7e 96 81 3f 08 31 7b 3f 63 b4 7d 3f
       0.9883127 1.0124052 0.9812169 0.99103373
000020 2c df 79 3f e6 e1 7e 3f c0 4b 7c 3f 1a 31 7d 3f
       0.9760616 0.99563444 0.98553085 0.9890305
000030 de 31 7e 3f b6 bc 82 3f ca 3a 7b 3f f0 0e 7e 3f
       0.9929484 1.021384 0.9813658 0.9924154
000040 04 86 79 3f 98 08 78 3f ae 39 7d 3f 93 9d 7e 3f
       0.97470117 0.96888113 0.9891614 0.9945919
000050 08 96 7e 3f f3 7c 77 3f a0 0f 7a 3f 91 79 77 3f
       0.9944768 0.9667503 0.9768009 0.9666987
000060 2d 6e 81 3f 4d 56 80 3f 24 b0 7d 3f 98 12 76 3f
       1.0111748 1.0026337 0.99096894 0.9612212
000070 a4 97 7f 3f 6d 72 7c 3f e8 f1 7c 3f 5e 0e 7b 3f
       0.9984076 0.986121 0.9880662 0.980688
000080 d6 3c 81 3f 22 1d 7c 3f d9 b9 76 3f 55 f6 74 3f
       1.0096691 0.98481953 0.9637733 0.9568837
000090 c1 48 7a 3f dc e6 77 3f bf 34 7c 3f 34 a0 7d 3f
       0.97767264 0.9683664 0.98517984 0.99072576
0000a0 a9 ab 84 3f f3 76 7a 3f d4 a4 7e 3f 66 e3 7c 3f
       1.0364887 0.9783775 0.9947026 0.9878448
0000b0 e7 c4 76 3f 35 37 75 3f 67 1a 7c 3f 1e 79 7c 3f
       0.963942 0.95787364 0.98477787 0.9862231
0000c0 64 90 7b 3f 74 35 7a 3f f4 43 81 3f de 55 77 3f
       0.982672 0.97737813 1.0098863 0.966154
0000d0 5f 51 82 3f 45 bf 83 3f 3b 0b 7d 3f 96 ce 7e 3f
       1.0181082 1.0292746 0.9884526 0.99533975
0000e0 dc 50 76 3f 3a ad 82 3f 60 ba 7e 3f e6 c3 7b 3f
       0.9621713 1.0209115 0.99503136 0.9834579
0000f0 60 0a 78 3f f6 b9 81 3f e9 6a 7b 3f 25 cf 80 3f
       0.9689083 1.0134876 0.98210007 1.0063215

model.8.bias f4 [64]
000000 bb e0 fa 39 8b 11 98 bd c0 e4 ef bb e5 4b 1b bd
       0.00047851153 -0.07425221 -0.0073209703 -0.037914176
000010 24 cb bd 3a f8 c8 b3 bc 19 a9 8d bc f2 cb bd bb
       0.0014480096 -0.021946415 -0.017292546 -0.0057921344
000020 28 c5 1c bd 2b 20 f7 bc c3 49 cd bc df 30 53 bd
       -0.03827396 -0.030166706 -0.025059586 -0.05156028
000030 d2 d7 46 bc 20 ab 96 bd 70 86 43 bd d1 ea 31 bd
       -0.0121364165 -0.07356858 -0.04773563 -0.04343683
000040 9f 12 81 bc 72 fe e2 bc c4 fb 05 bd b6 f9 25 bd
       -0.01575595 -0.02770922 -0.032710806 -0.040521346
000050 24 66 5f bd 47 07 fb bc 3e d3 34 bd c4 06 0c bd
       -0.05454077 -0.030643119 -0.04414677 -0.03418614
000060 bc 4e 74 bd 52 9d c5 bc 09 fc 30 bd 02 4a 39 bd
       -0.0596454 -0.024122868 -0.04320911 -0.045236595
000070 97 ee 19 bd 43 3a 86 bb 57 67 40 bd 22 3e bb bc
       -0.037581053 -0.004096301 -0.046973553 -0.022856776
000080 6a a7 ba bc 6d ba 48 bd b2 0c 87 bc b1 47 fe bc
       -0.022784907 -0.049005914 -0.016485546 -0.031040045
000090 59 f2 ba 3c ef 22 53 bd ec 95 41 bd d0 4b 9b 3a
       0.022820638 -0.051546987 -0.047262117 0.0011848155
0000a0 a9 9e b3 bd 86 b2 0e 3c 83 cd 77 bd 5a e1 19 bd
       -0.087704964 0.0087095555 -0.060498726 -0.037568428
0000b0 2e e9 69 bd ba e4 cc bc 5f f8 7e bb 52 f2 53 3c
       -0.057107143 -0.02501141 -0.0038905365 0.012936192
0000c0 1f 1f 13 bd de c5 99 bc 21 1d 72 3c b6 51 ed bc
       -0.03591835 -0.018771108 0.014777453 -0.028969627
0000d0 71 cc a3 bd ba 94 a0 bd 70 a0 72 bc c3 bc 83 bc
       -0.079979785 -0.07840867 -0.014808759 -0.01608122
0000e0 d8 6a 19 bc b1 2f 6e 3c 0f d2 6a bc d9 4a f0 bc
       -0.009363852 0.014537738 -0.014332308 -0.029332565
0000f0 0d 9c 8c bd 7f 0a 81 bb 2a 80 03 bd 11 af af bc
       -0.06865702 -0.003938019 -0.03210465 -0.021445783

model.8.running_mean f4 [64]
000000 f2 e0 4b bd 49 c2 85 bd a4 76 53 bb 12 a8 b2 bd
       -0.04977507 -0.065311976 -0.003226676 -0.08723463
000010 c2 c8 4a be bf aa 50 bc f6 b8 14 be 22 48 4a bd
       -0.19803146 -0.012736022 -0.14523682 -0.049385197
000020 b7 24 1a bd 5b f4 90 3d 78 a4 cb bd 5a c0 a1 bd
       -0.03763267 0.07077857 -0.09943479 -0.07898016
000030 ac e4 3b bd 7c 92 dc bd b2 5c f8 3b 39 ef ac 3d
       -0.045872375 -0.10770127 0.0075794095 0.084440656
000040 37 12 10 be 82 26 c1 bd 1c f0 a4 3d fc 52 0f be
       -0.14069448 -0.09431173 0.0805361 -0.139965
000050 f5 0e cb bd b4 9b 22 be b0 64 e1 3c cb 44 f4 3c
       -0.09914962 -0.15879709 0.027513832 0.02981796
000060 c9 e1 a8 bd d2 92 11 bd 50 64 a6 bd 88 e7 5e 3d
       -0.0824619 -0.03554041 -0.08124602 0.054420024
000070 65 35 2b 3e 8a 37 03 be d4 6d 4e bd d2 9b 35 be
       0.16719587 -0.12814155 -0.05039771 -0.17735222
000080 b0 e7 09 3e 5b 0e 94 bc 21 f1 02 be 84 35 01 be
       0.13467288 -0.018073251 -0.12787296 -0.12618071
000090 eb 60 18 be b0 cc 7f bd 42 c9 99 bd 85 99 30 be
       -0.14880721 -0.062451065 -0.0750909 -0.17246063
0000a0 62 f0 82 bd 2b 88 0e be e9 18 9a bd dc f3 5d 3c
       -0.06393506 -0.13919131 -0.075242825 0.01354691
0000b0 24 d0 c4 3d e9 b4 04 be 7b af d4 bd 42 29 61 be
       0.09610012 -0.12959637 -0.10385033 -0.21988395
0000c0 2b 25 d2 bd 63 c7 ee bd 5c 01 40 be e6 b8 dd 3c
       -0.102609955 -0.11659124 -0.18750519 0.027065706
0000d0 44 fd 30 bd 34 03 6c 3b 4b 8c e3 bd c8 09 1f bd
       -0.043210283 0.0036012651 -0.11110743 -0.038827688
0000e0 2a 7e 0b be 16 4f f9 bd 01 62 ce 3c 3d cf cf ba
       -0.13622347 -0.121732876 0.025193216 -0.0015854609
0000f0 54 19 f4 ba 91 78 1b 3c 07 ad c2 3d 19 93 ab 3c
       -0.0018623271 0.0094891945 0.095056586 0.020944165

model.8.running_var f4 [64]
000000 2c 16 31 3c 61 53 05 3d 36 7a 2a 3c dd 8e a6 3c
       0.010808509 0.03255022 0.010405114 0.020331794
000010 f4 a0 19 3d 2b 86 46 3d 12 c2 1b 3d 17 a7 4f 3c
       0.037507012 0.048467796 0.038026877 0.012674115
000020 5c 28 0a 3c 61 e4 17 3c b1 cf f7 3c b9 b2 a3 3c
       0.008432474 0.009270758 0.030250402 0.019982683
000030 38 be 86 3c cc 65 3b 3d f8 e9 ce 3c a7 96 b6 3c
       0.016448125 0.045751378 0.02525805 0.022288634
000040 c8 1b fa 3c de 8f af 3c 4a 57 85 3c 5e cd c8 3c
       0.030530825 0.021430906 0.016276974 0.02451199
000050 1f bc df 3c 65 75 a3 3c c4 22 f7 3b 02 2a 8c 3c
       0.027311383 0.019953439 0.007541986 0.017109875
000060 e8 33 d0 3c 11 34 64 3c c2 8c ae 3c 88 0c c3 3c
       0.025415376 0.013928429 0.021307353 0.023809686
000070 81 c0 44 3c a3 06 4b 3d a1 58 c9 3c 8a e1 bd 3c
       0.012008787 0.049566876 0.024578394 0.023178834
000080 43 fc b4 3c e6 4f a7 3c 09 a0 bc 3c 7c 6a c7 3c
       0.022092944 0.02042384 0.02302553 0.024342768
000090 f2 d8 99 3c 4f 02 a1 3c 1a b3 86 3c e8 7c c7 3c
       0.018780205 0.019654421 0.016442824 0.024351552
0000a0 cd ce 16 3d a2 16 ee 3c eb 5e e7 3c 89 f1 5b 3c
       0.036818314 0.029063527 0.028243503 0.013424286
0000b0 34 95 23 3c 78 54 d0 3c 99 cd 65 3d e8 e7 f8 3c
       0.009984303 0.025430903 0.056104276 0.030384019
0000c0 2c 3e b7 3c 70 9a e5 3c a7 a1 4e 3d e5 7f 2e 3c
       0.022368513 0.028027743 0.050447132 0.01065061
0000d0 4e 35 21 3d c7 be 3e 3d 7c 51 ba 3c c5 b8 5f 3c
       0.039357476 0.04656866 0.022743933 0.013654892
0000e0 c8 b1 88 3c fe 1d 1a 3d ce 45 7a 3c 57 03 00 3d
       0.016686335 0.03762626 0.015275432 0.031253185
0000f0 a2 7c b0 3c ed be 30 3d 9e 31 63 3c 2b 89 a1 3c
       0.021543805 0.04315083 0.01386681 0.019718727

model.11.weight f4 [128, 64, 3, 3]
000000 4d 6b 14 bd dc ff d0 3c 6e 1d dd 39 01 18 d3 3b
       -0.036235142 0.025512628 0.00042174332 0.0064420705
000010 87 37 8c bc 67 1a 6d bb aa f3 f3 bc 2a 1b 83 ba
       -0.017116321 -0.0036179067 -0.029779274 -0.0010002602
000020 5a b2 d2 3a 49 d0 0e 3c ce de 61 3d 50 32 8c 3c
       0.0016074881 0.008716651 0.055144124 0.017113835
000030 41 ad 12 3c 4c b3 5d 3b 9a da b3 3c 1f 9d 2f 3c
       0.00895244 0.0033828793 0.021954823 0.010718613
000040 b2 3c 14 3d 28 5a aa 3b 92 fb e4 bc d7 48 b0 bc
       0.036190696 0.0051987357 -0.02795199 -0.021519108
000050 e6 79 5e ba 0f d6 a1 3c 39 bf c8 3c 5d c9 49 3d
       -0.0008486792 0.019755391 0.024505245 0.0492643
000060 4b 86 3c bc 11 77 02 3d 13 f3 72 bb 9a 39 b9 3b
       -0.011506627 0.03185183 -0.0037071153 0.0056526186
000070 d3 49 2a 3d 36 cc 67 3b ec 73 e9 37 11 8a 25 3d
       0.04157431 0.0035369522 2.7829745e-05 0.040414874
000080 b9 89 83 3d 10 89 39 3d 17 a9 08 3c d6 b3 8e 3c
       0.06422753 0.04529673 0.008341095 0.017419737
000090 5d 69 54 bd ca d8 a7 bc 76 2d 94 3c 52 ef 3b bd
       -0.051858295 -0.020489115 0.018088084 -0.04588253
0000a0 47 a6 af 3c 5b 33 27 bc 14 c7 10 bd 0c a0 fe bc
       0.021441592 -0.010205115 -0.035346106 -0.031082176
0000b0 d7 68 ce bc a8 ce 59 bc 73 a4 28 bc c5 d7 30 bc
       -0.025196476 -0.0132939 -0.010293114 -0.010793631
0000c0 06 b1 86 3c 32 b9 04 bd 66 b8 45 bb 15 1f 53 bc
       0.016441833 -0.03240318 -0.0030169724 -0.0128858285
0000d0 b9 9f cd ba d0 3e 40 3d 17 da 44 bd d5 98 11 bd
       -0.001568786 0.046934903 -0.04805955 -0.035546143
0000e0 f9 2f 25 3c 85 17 fa 3c 1c 0e 48 3a 47 bf 90 bc
       0.010082238 0.030528793 0.0007631497 -0.017669333
0000f0 b6 a5 9f bc 4d 84 72 3c e4 34 da 3c f6 8c 36 3d
       -0.019488197 0.014802051 0.026636548 0.044568025
000100 96 c2 e8 b9 4d 74 b6 bc 5f 74 0a 3d 80 b0 0f 3d
       -0.00044395466 -0.022272253 0.033802386 0.035080433
000110 64 9a a0 3b 78 81 02 3d 5b 95 22 bc 4b ff 25 3d
       0.0049012173 0.031861752 -0.009923304 0.04052667
000120 4e 2f 1e bb f4 c9 f4 bb d8 57 0a 3d bd cb 43 bc
       -0.0024137083 -0.0074703638 0.03377518 -0.01195043
000130 89 cc f6 bc c1 2f 42 3d ed 0f 8d 3b ea bb c2 3c
       -0.030126827 0.047408823 0.004304877 0.023771245
000140 90 aa 43 3d 1b 72 a5 bc d2 73 56 3c 74 c9 42 3c
       0.047770083 -0.020196011 0.013089137 0.0118888505
000150 76 17 35 bd dc 79 83 bb ca 5c 22 bd 95 bc 0d bc
       -0.044211827 -0.0040123295 -0.03963927 -0.0086509185
000160 d0 c1 0a 3d 5e 37 38 bd a7 08 42 3d 27 d2 a9 3b
       0.03387624 -0.044974677 0.047371533 0.005182523
000170 b6 7c 1a bd 37 35 b8 3c 93 94 dd bc 50 b7 10 3d
       -0.03771659 0.022486312 -0.027048385 0.03533107
000180 19 a9 45 3d 8d 63 98 3c bf 3d 9c 3c 36 ee 93 bc
       0.048256967 0.018602157 0.019072412 -0.018057924
000190 8d 78 7a ba f9 9b cb bc 20 fd fd 3b 0e 23 31 3d
       -0.00095547066 -0.024854647 0.007751122 0.04324632
0001a0 fb 4c fb bb 9e b5 dd 3c f9 fc d9 3c fd 6b 0c 3d
       -0.007669089 0.02706414 0.026609885 0.034282673
0001b0 53 3f 0b bd 6e 58 6b 3c 75 9a da 3c e4 c5 a1 3b
       -0.033995938 0.014364345 0.026684979 0.0049369205
0001c0 a6 10 db bc 29 7b 93 bc 7e e9 30 bc ad ee ca bc
       -0.026741337 -0.018003063 -0.010797856 -0.024772013
0001d0 83 e8 67 bc 5c a6 da 3c 0d db ea 3b 3f 1b 32 3d
       -0.014154556 0.026690654 0.007167226 0.043483015
0001e0 78 fd 0e 3d 9e c7 1d 3d 70 31 33 3b c9 1c c0 3c
       0.034909695 0.038520448 0.00273427 0.023451226
0001f0 5b 77 10 bc c6 ee a2 3b 0d ab 01 bd d0 69 0b 3d
       -0.008817519 0.0049723117 -0.031657267 0.034036458
000200 f3 f9 fa bb ad 34 4a bb 2c 08 14 3c 04 d1 b8 3c
       -0.007659191 -0.003085415 0.009035151 0.022560604
000210 58 f1 f8 bb 76 9e f0 bc ef 1b 54 3d 9b 43 97 3c
       -0.00759713 -0.029372435 0.051784452 0.018464854
000220 c1 86 ff bc 4c 08 38 bc 63 02 c2 3b cf b6 e4 3c
       -0.031192185 -0.011232447 0.0059206947 0.027919201
000230 46 0f 61 3c 33 13 16 bc 9b e5 9a bc b6 ef 08 3d
       0.013736552 -0.009159851 -0.018908313 0.03343173
000240 1b 01 2b 3c 47 03 c2 bc 57 91 87 bc 99 b9 c2 bc
       0.010437275 -0.023683203 -0.016548796 -0.02377014
000250 9b 9e 93 3c ea f0 28 bc 94 e2 33 bd 2e df f7 bc
       0.018019965 -0.010311345 -0.043917254 -0.030257788
000260 3d 27 23 3c e2 b1 e8 3b 28 ab 24 3b c5 2c 88 3c
       0.009958086 0.0071012834 0.002512643 0.01662291
000270 ae d0 5e 3c 38 7a ea 3c 90 bd bf 3c 9d e8 cf bc
       0.013599558 0.028622732 0.02340582 -0.025379473
000280 05 36 68 3c 5f d1 36 bc e1 3d 18 3d a0 14 03 bd
       0.0141730355 -0.011158316 0.037168387 -0.03200209
000290 df 96 9a bc 73 9f e3 3c 52 c3 ba 3c 70 32 0e 3d
       -0.018870769 0.027785992 0.022798214 0.03471607
0002a0 6c 63 13 bd 5e 9b b7 bc 9c 89 f7 3c bb 10 de bc
       -0.035983488 -0.022412952 0.030216984 -0.027107587
0002b0 b7 51 08 3c da 61 06 3d 28 46 04 3b 47 bd 12 3d
       0.008320264 0.032808162 0.0020183418 0.03582504
0002c0 5f 86 42 3d 52 65 5a 3d 03 d9 1c 3b b1 08 eb 3a
       0.047491428 0.053319283 0.002393306 0.0017931667
0002d0 eb c3 26 3c b3 50 1a 3d 90 37 2d bb 0a 02 02 bc
       0.010178546 0.037674617 -0.0026430823 -0.007935056
0002e0 5a a6 b3 3b fb 38 aa 3b e0 d8 da 3c f3 ed 5b 3b
       0.005482477 0.005194781 0.026714742 0.0033558577
0002f0 5c 35 e2 bb bc e8 da bb 3a c2 53 3d 0c af 46 bc
       -0.0069033336 -0.006680576 0.0516989 -0.012126695
000300 5b 25 70 3c c2 1f af bc f5 ee 7a bc a8 bb 08 bd
       0.014657344 -0.021377448 -0.015315761 -0.033382088
000310 71 69 92 3b c8 74 d3 bc 5a 95 a0 3c 5a 46 e9 bb
       0.004468136 -0.025812522 0.019602466 -0.0071189823
000320 62 fe 5d bc 94 e2 1d 3d 61 33 c4 bc 0e bc c1 bc
       -0.013549419 0.03854616 -0.02395028 -0.023649242
000330 0b 63 cf 3b 9f a5 22 bc 1b f1 4d 3c a9 1a 0d bd
       0.0063289455 -0.009927182 0.012569691 -0.034449253
000340 99 0b aa ba 2f da 03 bc c6 16 ff 3c 24 ab a3 bc
       -0.0012973427 -0.0080476245 0.031138789 -0.019979067
000350 16 5c 90 bc b8 1c 25 3c 16 5e 59 bc d4 c7 42 bc
       -0.017622035 0.010077648 -0.013267061 -0.011888463
000360 4f 63 dc 3c 9a 62 4b 3d b6 48 3f 3d 9e 57 61 3d
       0.026902823 0.04965458 0.046700202 0.0550152
000370 1d cb 0a 3d aa f3 1d 3d 7a ab ab bc fc c4 66 3d
       0.03388511 0.038562454 -0.02095579 0.056340203
000380 5a a9 d4 3c 61 a6 49 bc f4 35 bd 3c 76 ba 10 3d
       0.02595966 -0.012307734 0.023097016 0.035334073
000390 7a 33 d6 3c e2 58 54 3c 21 02 45 3c a8 f7 c6 bc
       0.026147593 0.012960644 0.012024433 -0.024288014
0003a0 71 ae 8d 3d e1 4b 72 bc b7 84 a8 3c 21 45 ce bb
       0.06918038 -0.014788599 0.020571096 -0.006294862
0003b0 7b 98 30 3c 49 d2 95 b9 40 a3 6c 3b 8d c3 0a 3d
       0.010778542 -0.0002857617 0.0036108047 0.033877898
0003c0 0e 17 1f 3d 02 54 60 3c 2f d4 82 3c c2 7a 3b bc
       0.038840346 0.013691904 0.015970318 -0.011442842
0003d0 f6 21 51 bc 33 d8 62 bc 1a 77 3c bd cf 32 1b bc
       -0.012764445 -0.013845491 -0.04601202 -0.009472563
0003e0 8c dc 71 3b 89 cc 20 bb cd b8 22 3c 1d b2 45 bd
       0.0036905138 -0.0024535975 0.009931755 -0.048265565
0003f0 9f 17 1c bb ca 8b 18 bd c8 12 01 bd b8 cc 02 3d
       -0.002381779 -0.03724269 -0.03151205 0.031933516

model.11.bias f4 [128]
000000 38 aa 7d 3b b1 6f 65 3c 1c 0d af bc a5 81 ae 3c
       0.0038706195 0.01400368 -0.021368556 0.021302054
000010 40 39 26 bd e6 74 5e bc cf f7 dc 3c 09 36 13 3c
       -0.04058194 -0.013577675 0.026973633 0.008985051
000020 cb 27 ab 3c 3e b3 91 bc 02 f8 01 bb d6 01 e1 3c
       0.020892998 -0.017785665 -0.0019831662 0.027466696
000030 16 cb 13 bd 73 b7 9e 3c 37 0c d3 bc 29 52 ad bc
       -0.03608235 0.019374585 -0.02576266 -0.021157341
000040 7d f2 f3 3c 3a 08 fc 3c 1c 49 e2 bb 72 a8 0d 3c
       0.029778713 0.030765641 -0.006905688 0.0086461175
000050 75 c8 0e 3c 18 8d fe 3c 2d e6 77 bc 1d 00 d6 bc
       0.008714785 0.031073138 -0.015130562 -0.0261231
000060 28 06 0a 3d 34 6c e0 bb 99 43 df 3c 45 0c 1d bd
       0.033697277 -0.0068488363 0.027253913 -0.03834178
000070 dd 5a dc 3b c4 23 f0 bc de 94 15 3d d0 76 9a 3c
       0.006724699 -0.02931393 0.036518924 0.018855482
000080 5d 4f db 3c 6f f3 c9 bc c4 08 71 bb cb 4f eb 3c
       0.026771242 -0.024652211 -0.0036778906 0.028724572
000090 b2 bd f4 bc 87 0f ec 3c 2b d2 06 bd 79 11 4d 3c
       -0.02987561 0.028815998 -0.032915276 0.012516373
0000a0 e2 9c 94 3c 3a 8c d4 3a bc 7a 11 3d 59 0a ed 3c
       0.018141214 0.0016216107 0.03551744 0.028935598
0000b0 7a 80 df 3c a6 42 fb 3b 66 6d e9 3c b5 34 2f 3b
       0.027282942 0.007667857 0.028494548 0.0026734297
0000c0 7a fc 51 bc 3f e2 a9 3c 39 dd 11 3c 0f 4e 28 3c
       -0.012816543 0.020737765 0.008902841 0.010272517
0000d0 51 b7 ab bc a9 37 4a ba 80 91 2a bd b2 e5 be 3c
       -0.020961436 -0.00077139825 -0.041642666 0.023302887
0000e0 73 97 86 bc 2f 97 49 bc 02 34 23 bd 92 83 0f 3b
       -0.016429638 -0.012304111 -0.03984452 0.002189849
0000f0 bd ba 1a bd 24 d1 1b 3d eb 74 c9 3c 06 27 21 3c
       -0.037775744 0.03804125 0.024591884 0.009835964
000100 6b 73 e5 b7 67 76 a1 3c c8 e4 03 bd c2 52 fa 3b
       -2.7352673e-05 0.019709779 -0.032200605 0.00763926
000110 80 0c 1b bc 40 4a 2b bd 84 ff 46 bc fd 89 37 3d
       -0.009463429 -0.041818857 -0.012145881 0.04480933
000120 22 1f 12 bc 1b 51 b4 3c 7a fd da bc 8e bc 17 bd
       -0.008918555 0.02201133 -0.026732195 -0.037045054
000130 35 83 f0 bc 42 e6 06 3d 4d b8 f8 3c e9 01 4b bc
       -0.02935944 0.032934435 0.030361319 -0.012390592
000140 46 72 03 bd 09 4e 14 bc 42 66 59 3b 7f 96 4e 3c
       -0.0320914 -0.009051808 0.0033172523 0.012609123
000150 fe e2 5e bc 64 46 31 bc 99 b2 ed 3c eb 48 25 3d
       -0.013603924 -0.010820005 0.029015826 0.040352743
000160 ef 03 4f bc fb 6f f1 3b a9 b0 5e bc 83 e4 c7 36
       -0.012635215 0.0073680854 -0.013591924 5.9572644e-06
000170 72 a5 5e bc 00 43 8a bb 6c f2 65 3b 1b 32 20 bc
       -0.01358925 -0.004219413 0.0035087122 -0.009777571
000180 82 ac 7f 3c db 7c b6 3c 41 57 b0 3c c1 6e 02 3d
       0.015605094 0.022276333 0.02152598 0.031843904
000190 0d 49 03 3d 02 3c 1c bc e4 7e 24 3c a0 76 b1 3c
       0.03205209 -0.009535791 0.010040019 0.02166301
0001a0 20 15 be 3c e8 39 f9 3c de 73 1c 3d 6e f1 e9 bc
       0.023203433 0.03042312 0.038196437 -0.028557505
0001b0 ec d4 24 3d 4d 91 62 bb 79 3c 10 bd 47 e0 fe 3c
       0.04024212 -0.003457147 -0.03521392 0.031112803
0001c0 f8 1a e2 3c a4 ac 2e bb ca 85 36 bb c2 ed 23 3d
       0.02760075 -0.0026653195 -0.002785074 0.040021665
0001d0 20 93 c8 3c ed d9 9e bb f0 57 0f bb 4c 15 3c 3d
       0.024484217 -0.004847756 -0.0021872483 0.045918748
0001e0 5c 43 ce bc 04 da de 3b e4 e8 be bc 7c c9 10 bd
       -0.025178604 0.006800892 -0.02330441 -0.0353484
0001f0 ba 39 18 3d 2a 27 af 3a d7 84 2c 3c 04 09 c3 bc
       0.037164427 0.0013363112 0.010529718 -0.02380801
